Object Recognition with Gradient-Based Learning/lenet_98.43.pt (torch, 182279 bytes, 10 tensors)

weight f4 [6, 1, 5, 5]
-0.20631963 -0.052253995 -0.18504065 -0.40478727 -0.2944899 -0.17885599 0.044402126 0.20968843
-0.11387021 0.01864639 0.21442717 0.68339545 0.9274818 0.6582184 0.008777546 0.13062944
0.7658785 0.7667819 0.8260033 0.24343462 -0.3037676 0.2717844 0.32731596 0.22907755
-0.19738169 -0.14247651 0.042833943 0.25138623 -0.001056423 -0.09508109 0.23830888 0.71589303
0.77181077 0.48219383 -0.011507773 0.6561123 0.96039593 1.0617472 0.25379202 -0.13407144
0.24783711 0.5788056 0.18493848 0.06417759 -0.18947548 -0.054694943 -0.057535175 -0.23515381
-0.40223643 -0.28955325 -0.30160725 -0.560508 -0.43877232 -0.32449484 0.026452828 -0.1821414
0.011563266 0.15169017 0.48659924 0.40744475 0.039158147 0.33994016 0.8698294 1.028052
0.8236126 0.35457098 0.2687945 0.6431502 0.9497993 0.4072827 -0.3487547 -0.11893133
0.10448281 -0.09117209 -0.058063895 -0.019428436 -0.15788676 -0.3803997 0.24236014 0.32194766
-0.11584066 -0.35698298 -0.17661701 0.4935159 0.89328974 -0.25236127 -0.2480334 0.116228394
0.5569116 0.7105185 0.018074378 -0.23766719 -0.16518939 0.35956544 0.2848214 0.1154433
0.051174037 -0.3187765 -0.19684155 -0.07427722 0.008406531 -0.1101422 -0.2219218 -0.14994286
-0.39783704 0.084657714 0.17149855 0.1591025 -0.012051878 -0.4711161 0.4091615 0.58012176
0.8008295 0.55213237 -0.24097241 0.5519911 0.5162415 0.665865 0.2499975 0.09450403
0.1133262 -0.081779346 0.22258224 0.19354977 -0.18088533 0.018946692 -0.29250193 -0.3918653
-0.3423128 -0.052633453 -0.3946909 -0.36562926 0.4037406 0.48523995 0.3096087 -0.19219619
0.29404888 0.99427617 1.4709386 0.64478743 0.101176225 0.39438057 1.044433 1.1038772
0.6535911 -0.43137097 -0.1429366 -0.088002324 -0.15865412 -0.13634251
00000000: 7445 53be 4908 56bd 4c7b 3dbe 4740 cfbe
00000010: 61c7 96be 0626 37be 01df 353d 90b8 563e
00000020: c934 e9bd 50c0 983c cc92 5b3e 01f3 2e3f
00000030: 726f 6d3f 0081 283f b2cf 0f3c b9c3 053e
00000040: 9d10 443f d24b 443f f474 533f ed46 793e
00000050: 6d87 9bbe 5327 8b3e f595 a73e 4e93 6a3e
00000060: 6d1e 4abe 5de5 11be a572 2f3d b2b5 803e
00000070: ac77 8aba e0b9 c2bd 3e07 743e c444 373f
00000080: 6495 453f 1ce2 f63e 198b 3cbc faf6 273f
00000090: 82dc 753f 55e7 873f 07f1 813e 064a 09be
000000a0: 03c9 7d3e 9b2c 143f 8360 3d3e 8a6f 833d
000000b0: dc05 42be ce07 60bd 01aa 6bbd 29cc 70be
000000c0: eff1 cdbe 5340 94be 446c 9abe 747d 0fbf
000000d0: c4a6 e0be 3024 a6be 9ab3 d83c 4683 3abe
000000e0: da73 3d3c ab54 1b3e 8923 f93e 999c d03e
000000f0: 4b64 203d a30c ae3e 24ad 5e3f 3597 833f
00000100: 46d8 523f 548a b53e 6f9f 893e 7ea5 243f
00000110: 0c26 733f 5c87 d03e fa8f b2be 4592 f3bd
00000120: 15fb d53d 6fb8 babd 68d4 6dbd 6228 9fbc
00000130: 11ad 21be c0c3 c2be 422d 783e 53d6 a43e
00000140: de3d edbd 79c6 b6be 17db 34be 1eae fc3e
00000150: a3ae 643f 7f35 81be 78fc 7dbe 2709 ee3d
00000160: c291 0e3f 8ae4 353f b810 943c 075f 73be
00000170: 6827 29be f618 b83e 1cd4 913e 896d ec3d
00000180: de9b 513d ac36 a3be d590 49be a81e 98bd
00000190: 8cbb 093c 3c92 e1bd 783f 63be 9f8a 19be
000001a0: 4cb1 cbbe 0661 ad3d 519d 2f3e c4eb 223e
000001b0: 3d75 45bc 2136 f1be 9e7d d13e dc82 143f
000001c0: 2a03 4d3f 8c58 0d3f 79c1 76be 4a4f 0d3f
000001d0: 6728 043f 2176 2a3f 58ff 7f3e 548b c13d
000001e0: 9117 e83d ee7b a7bd 99ec 633e e931 463e
000001f0: 013a 39be 1836 9b3c d0c2 95be 92a2 c8be
00000200: a043 afbe 2d96 57bd ed14 cabe c233 bbbe
00000210: 17b7 ce3e 5f71 f83e 0885 9e3e 14cf 44be
00000220: 938d 963e e288 7e3f b747 bc3f ca10 253f
00000230: 7b35 cf3d 40ec c93e fbaf 853f d94b 8d3f
00000240: bf51 273f a8dc dcbe f95d 12be 903a b4bd
00000250: 3a76 22be 5f9d 0bbe

bias f4 [6]
0.16058366 0.047675423 0.11713806 0.03877274 0.018083017 0.098598324
00000000: 0b70 243e 4e47 433d 14e6 ef3d 2ad0 1e3d
00000010: d622 943c ebed c93d

weight f4 [16, 6, 5, 5]
-0.0074134483 0.12883267 0.10637121 0.0042552617 0.0989451 -0.018975347 -0.016711758 -0.028622033
0.027464373 0.09134407 -0.10210687 -0.045046 0.0039078128 -0.027736641 -0.00042863566 0.050870687
0.044115916 -0.051032618 -0.055826608 -0.084134504 -0.020173913 0.016792728 0.0010130081 -0.09602779
0.010550347 -0.020231359 -0.02274688 0.125327 0.07476104 -0.040162835 -0.02792221 0.030214405
0.09282025 -0.06889979 -0.050354883 -0.051530477 -0.043611165 0.088948674 0.030587334 -0.017020559
-0.01920338 0.07534109 -0.0015171738 -0.0038740006 -0.071101785 -0.07417679 0.09035551 0.0035341012
-0.022315301 -0.08720672 0.023501595 0.16156627 0.0054221353 0.042660486 -0.06752412 0.006454478
0.052056726 -0.11793643 0.016770335 0.012598353 -0.047810566 0.011309814 -0.02257641 -0.07162086
-0.008651723 0.08801565 0.030011557 -0.04781751 0.010244361 0.021629686 0.078297436 -0.058363594
-0.020445557 -0.002485115 -0.018050758 0.08353727 0.15063511 0.030064402 0.033441033 -0.19351438
0.100848526 0.030164873 0.0070757726 0.0135569945 -0.0690022 0.08913802 0.1030287 -0.045636784
0.08399584 0.027515756 0.095613465 0.0017908154 0.08342357 0.07543218 -0.0155913 0.05468845
0.02541361 0.035385054 -0.079369545 -0.08668554 0.034462914 0.056356166 0.0858216 0.08102463
0.078561656 0.044659838 -0.053914614 -0.047238663 0.045864258 -0.018449508 -0.072769545 -0.09027309
0.03872824 0.0019492145 0.051963747 -0.06894187 0.0057326327 0.037732325 -0.029249903 -0.07977074
0.04286305 -0.022924148 0.032997657 -0.008567888 -0.082970105 0.11519904 0.044986904 0.12129077
0.0065270625 0.0846071 -0.047336306 -0.023966113 0.04077406 0.01731342 0.01770904 -0.16104592
0.051820695 0.04496215 0.0013808055 -0.10217348 -0.039105784 -0.010077714 0.027110843 -0.106083475
-0.07254411 0.042261515 -0.093416885 -0.099015675 0.06065853 0.014017168 -0.02316514 -0.08088356
-0.06456866 -0.036439016 -0.023660498 -0.011822208 0.08558851 0.07178753 -0.04759748 -0.09040644
0.048978087 0.056208763 0.11607328 -0.0531032 0.0347191 0.026834011 -0.037269704 0.011615493
-0.004571932 0.11762407 0.02787846 0.041615836 0.003593815 0.027090348 0.10803679 0.018261196
0.042454086 -0.094392665 -0.1322049 0.03181701 -0.065011345 0.09090006 0.007844835 -0.058368888
0.030804576 0.07010816 0.013224916 0.07348403 -0.011660002 -0.018471103 0.067726456 0.08671085
0.03063046 -0.009911964 -0.04932051 -0.057839878 -0.005670392 0.07189184 -0.04628711 0.049034096
0.021288864 -0.08516645 -0.0122687165 0.015807012 -0.06193553 -0.054528356 -0.03325544 -0.019829068
-0.046464544 -0.016862538 -0.079302385 0.10854579 -0.0424048 -0.006374952 -0.07420223 0.057796996
0.07288571 -0.0051192176 0.07739408 0.041268412 0.0022884754 -0.06466809 -0.03704606 -0.044832025
0.04128709 -0.05064469 0.05345578 0.004406981 0.037688673 0.118754014 -0.038377278 0.048030987
0.008692545 0.07515986 0.018094681 -0.061388228 0.061446663 0.010575462 -0.09359052 -0.0686456
-0.006068687 0.06936661 0.05829197 0.06197316 0.0080710845 -0.07239442 0.03649504 -0.0007681287
0.060019508 0.059792347 -0.058432505 -0.0035991916 -0.10565575 -0.13559097 -0.078598484 0.012798937
00000000: 83ec f2bb b6ec 033e 26d9 d93d b96f 8b3b
00000010: bba3 ca3d 3072 9bbc 19e7 88bc c178 eabc
00000020: f7fc e03c 9a12 bb3d 681d d1bd 2882 38bd
00000030: 1c0d 803b f437 e3bc 81ba e0b9 c85d 503d
00000040: e4b2 343d 9407 51bd 71aa 64bd b64e acbd
00000050: c343 a5bc e790 893c e9c6 843a 38aa c4bd
00000060: 5ddb 2c3c 3cbc a5bc aa57 babc b955 003e
00000070: 511c 993d c981 24bd 1ebd e4bc 3384 f73c
00000080: 8b18 be3d 551b 8dbd ec40 4ebd 9f11 53bd
00000090: 9fa1 32bd b92a b63d 4a92 fa3c b36e 8bbc
000000a0: 6850 9dbc 6e4c 9a3d e8db c6ba f2e2 7dbb
000000b0: d09d 91bd 00ea 97bd 4f0c b93d 619c 673b
000000c0: 94ce b6bc 7099 b2bd 6b86 c03c a171 253e
000000d0: 2bac b13b c3bc 2e3d 164a 8abd 1680 d33b
000000e0: 6f39 553d a888 f1bd f161 893c 5369 4e3c
000000f0: 03d5 43bd cc4c 393c 2af2 b8bc f5ad 92bd
00000100: f5bf 0dbc 8d41 b43d ccda f53c 4bdc 43bd
00000110: f7d7 273c bd30 b13c 685a a03d aa0e 6fbd
00000120: 717d a7bc 50dd 22bb 2fdf 93bc 9715 ab3d
00000130: 1740 1a3e 9f49 f63c 77f9 083d a228 46be
00000140: ac89 ce3d 531c f73c e2db e73b 281e 5e3c
00000150: 0751 8dbd ff8d b63d b600 d33d a3ed 3abd
00000160: 0306 ac3d b968 e13c fed0 c33d cbb9 ea3a
00000170: fad9 aa3d 307c 9a3d a772 7fbc ff00 603d
00000180: 3430 d03c ebef 103d 808c a2bd 3088 b1bd
00000190: fc28 0d3d b9d5 663d 3cc3 af3d 3ef0 a53d
000001a0: efe4 a03d 3ced 363d 92d5 5cbd 547d 41bd
000001b0: 29dc 3b3d 6c23 97bc 3308 95bd 19e1 b8bd
000001c0: 81a1 1e3d c97c ff3a f0d7 543d 6531 8dbd
000001d0: cfd8 bb3b 368d 1a3d 7e9d efbc d75e a3bd
000001e0: 2a91 2f3d 6ccb bbbc 8d28 073d 5460 0cbc
000001f0: 3bec a9bd 79ed eb3d 3044 383d 4c67 f83d
00000200: f8e0 d53b 7d46 ad3d b7e3 41bd 9554 c4bc
00000210: b302 273d e0d4 8d3c 8c12 913c 39e9 24be
00000220: f041 543d 3b2a 383d 25fc b43a 5440 d1bd
00000230: 632d 20bd ff1c 25bc 8f17 de3c 4b42 d9bd
00000240: 0292 94bd 691a 2d3d 5a51 bfbd bbc8 cabd
00000250: 1475 783d 44a8 653c d2c4 bdbc 48a6 a5bd
00000260: 933c 84bd 1441 15bd a9d3 c1bc efb1 41bc
00000270: 0749 af3d 5705 933d 93f5 42bd 0327 b9bd
00000280: 3f9d 483d 293b 663d d4b7 ed3d be82 59bd
00000290: 9d35 0e3d 00d3 db3c 1ea8 18bd e94e 3e3c
000002a0: 25d0 95bb e3e4 f03d 5e61 e43c 5e75 2a3d
000002b0: 3686 6b3b 94ec dd3c 6442 dd3d 8198 953c
000002c0: 56e4 2d3d f150 c1bd b960 07be 8e52 023d
000002d0: ab24 85bd d029 ba3d 9f87 003c 3714 6fbd
000002e0: e159 fc3c de94 8f3d 51ad 583c cc7e 963d
000002f0: 9809 3fbc b650 97bc 2bb4 8a3d 7595 b13d
00000300: bbec fa3c ca65 22bc 4e04 4abd 82e9 6cbd
00000310: b2ce b9bb 073c 933d 8d97 3dbd fad7 483d
00000320: fc65 ae3c bf6b aebd ba02 49bc b57d 813c
00000330: 1cb0 7dbd 2059 5fbd db36 08bd 9270 a2bc
00000340: 9b51 3ebd 4e23 8abc 4a69 a2bd 414d de3d
00000350: a8b0 2dbd f9e4 d0bb 57f7 97bd 8bbc 6c3d
00000360: 1a45 953d 1cbf a7bb ca80 9e3d 1109 293d
00000370: 3ffa 153b b470 84bd 9cbd 17bd c9a1 37bd
00000380: a71c 293d ce70 4fbd 73f4 5a3d 7068 903b
00000390: 705f 1a3d 4e35 f33d 7e31 1dbd 24bc 443d
000003a0: 2d6b 0e3c 6aed 993d 4c3b 943c 3972 7bbd
000003b0: 7faf 7b3d b444 2d3c 63ac bfbd 1096 8cbd
000003c0: d6db c6bb 1510 8e3d 90c3 6e3d 91d7 7d3d
000003d0: 953c 043c 8743 94bd d37b 153d 3f5c 49ba
000003e0: 04d7 753d d2e8 743d ec56 6fbd 6ae0 6bbb
000003f0: 0b62 d8bd 5cd8 0abe 3ef8 a0bd a2b2 513c

bias f4 [16]
-0.04753088 0.03321137 -0.07078137 0.059414696 -0.002649891 0.08079131 0.031228766 0.011854147
-0.0022160432 0.011499656 0.026550323 -0.0455258 0.015933108 0.02469999 -0.0056988145 0.11411431
00000000: bdaf 42bd a508 083d d3f5 90bd d35c 733d
00000010: cba9 2dbb ea75 a53d 78d3 ff3c e537 423c
00000020: 093b 11bb 0e69 3c3c 1080 d93c 4379 3abd
00000030: 2686 823c a257 ca3c 1fbd babb c3b4 e93d

weight f4 [120, 16, 4, 4]
0.0439036 0.088826805 -0.057471372 -0.08640418 0.017664405 -0.034745876 -0.03776203 -0.08970996
-0.024183102 0.029568281 -0.0014746183 0.072900936 -0.032800645 0.0017348275 -0.019418897 -0.010741051
-0.029167343 0.008728738 0.042407617 -0.02028878 -0.05417901 0.0604117 0.07316462 0.092906356
0.04046126 0.037565313 0.055984944 0.065316185 -0.083143674 -0.06806926 -0.0020142032 0.072231844
0.05962691 -0.1057591 -0.054263614 -0.08618238 -0.109751776 -0.067580186 0.047103994 0.02073481
-0.0768896 0.0032410724 0.10038778 0.09770991 -0.06782776 -0.011256242 0.10952349 0.08998891
0.036529433 -0.065895736 -0.060677778 -0.08961689 -0.02266815 -0.013173222 -0.021404818 -0.09610319
-0.1510507 0.052530225 0.029881248 0.08863301 0.087594084 0.09759371 0.06652636 0.042421393
0.021901436 0.01859843 0.03249746 -0.19703965 -0.083423436 0.06986814 0.048630517 -0.087829605
-0.033088185 0.0014299876 0.088579334 0.1832736 -0.020863252 -0.016446277 -0.13221665 -0.19628328
0.04988344 -0.06083093 -0.06992677 -0.06513858 0.06589327 0.005310401 0.07372671 0.0193306
-0.20627967 -0.14071406 0.022955917 -0.1039425 -0.018882874 0.06330575 0.039507106 0.11023041
0.17629111 0.0540092 0.0057708253 -0.03985011 -0.012728407 -0.06957466 0.048401747 0.02799325
0.09291179 0.06766785 -0.022587739 -0.028503789 -0.04086246 -0.096596844 0.046935324 0.007249844
-0.058518033 -0.000726838 0.009677767 0.045716207 0.0680311 0.07605382 0.06500001 0.07325842
0.012545501 -0.07759734 0.018263467 0.020631045 -0.0860371 -0.050035283 -0.027527368 0.04541987
-0.009995002 -0.037104085 -0.007212915 -0.096843995 -0.07137594 -0.050577603 0.03229075 -0.030628635
0.0108878855 0.06010795 0.0010875039 -0.004471197 0.028584978 -0.02377989 0.013721124 -0.04257041
-0.041806098 -0.1024774 -0.066909365 -0.20505348 -0.06653 -0.036324754 0.074945144 -0.05911524
-0.047907088 0.010733467 -0.009415402 0.006919005 0.001970853 -0.015834939 -0.012706476 0.024962358
-0.0180707 0.07823489 0.01776344 -0.026126083 -0.0023401775 0.10244261 0.08358208 0.06108948
-0.01171168 -0.02092171 0.0183276 -0.017371483 -0.122540765 -0.08777733 -0.03473991 -0.0046360916
0.046512593 -0.02892491 -0.028855465 0.021453058 -0.060356583 -0.0043560653 0.0048069586 0.031925756
-0.05648455 0.009735705 -0.04243125 0.036098674 -0.0232311 -0.11269696 -0.052800864 -0.02582653
-0.09230568 0.0070655975 -0.051076904 -0.16422132 -0.048421375 -0.14371958 0.058111433 -0.04786782
0.061265916 0.054524884 0.015178074 0.07472412 -0.050599728 -0.10896748 0.02073618 0.08898377
0.039801933 -0.007502953 0.03993352 -0.045372996 -0.05601359 -0.022569003 -0.010382738 -0.032737445
0.023427192 0.0036804883 0.099761374 -0.07976338 -0.042008307 -0.047967844 -0.015757637 0.13628557
0.06097401 0.015823506 0.12996313 0.060072847 0.049232014 0.10251964 0.061393008 0.118549705
-0.035857346 -0.05126099 0.062374316 0.027994901 -0.08644803 -0.036660716 -0.1354259 0.11069256
-0.10234866 -0.029683191 0.043241233 -0.0092415465 0.06118711 0.011781297 0.14835484 0.14559543
0.11021413 0.06784171 -0.018170707 0.12720682 -0.054271486 -0.10470439 0.04120663 0.06683956
00000000: 43d4 333d d4ea b53d 1a67 6bbd adf4 b0bd
00000010: f1b4 903c b151 0ebd 5cac 1abd dbb9 b7bd
00000020: a41b c6bc 2e39 f23c fb47 c1ba 164d 953d
00000030: f859 06bd 2763 e33a 6114 9fbc 3cfb 2fbc
00000040: 5af0 eebc fb02 0f3c 9cb3 2d3d a834 a6bc
00000050: cfea 5dbd 4272 773d 55d7 953d b045 be3d
00000060: b5ba 253d 16de 193d 7850 653d 7ec4 853d
00000070: 3b47 aabd e567 8bbd b900 04bb 4aee 933d
00000080: 593b 743d 3a98 d8bd 8643 5ebd 6380 b0bd
00000090: 8ac5 e0bd 7b67 8abd 1ef0 403d 0cdc a93c
000000a0: 4b78 9dbd 2c68 543b 1c98 cd3d 221c c83d
000000b0: 48e9 8abd 1a6c 38bc da4d e03d 1b4c b83d
000000c0: e39f 153d 58f4 86bd 4389 78bd 0f89 b7bd
000000d0: 8eb2 b9bc 7fd4 57bc 2859 afbc c0d1 c4bd
000000e0: 09ad 1abe ef29 573d 85c9 f43c 3985 b53d
000000f0: 8764 b33d 36df c73d f93e 883d 0ec2 2d3d
00000100: a46a b33c bc5b 983c 0e1c 053d c3c4 49be
00000110: e8d9 aabd 0717 8f3d cb30 473d 02e0 b3bd
00000120: 7a87 07bd 6c6e bb3a 1569 b53d 13ac 3b3e
00000130: 69e9 aabc 58ba 86bc cd63 07be 7cfe 48be
00000140: 9452 4c3d da29 79bd c435 8fbd 6067 85bd
00000150: 0df3 863d df02 ae3b 08fe 963d 355b 9e3c
00000160: fa3a 53be 5917 10be 0c0e bc3c cedf d4bd
00000170: 42b0 9abc 72a6 813d 34d2 213d 7bc0 e13d
00000180: a885 343e c038 5d3d 3119 bd3b de39 23bd
00000190: cf8a 50bc 297d 8ebd e940 463d 1a52 e53c
000001a0: 8948 be3d 7195 8a3d ec09 b9bc c780 e9bc
000001b0: 655f 27bd 91d4 c5bd 413f 403d 1990 ed3b
000001c0: 9bb0 6fbd 4689 3eba 7f8f 1e3c eb40 3b3d
000001d0: e453 8b3d 1bc2 9b3d ba1e 853d 8308 963d
000001e0: a58b 4d3c 5beb 9ebd 449d 953c 7002 a93c
000001f0: 3834 b0bd ccf1 4cbd 1381 e1bc 300a 3a3d
00000200: 14c2 23bc 74fa 17bd 515a ecbb 2556 c6bd
00000210: 8d2d 92bd 762a 4fbd 4e43 043d e7e8 fabc
00000220: 1a63 323c c133 763d 938a 8e3a 1e83 92bb
00000230: 0b2b ea3c 0bce c2bc 91ce 603c 4f5e 2ebd
00000240: df3c 2bbd acdf d1bd c707 89bd 8af9 51be
00000250: e140 88bd 44c9 14bd d77c 993d d222 72bd
00000260: 393a 44bd 6cdb 2f3c 0f43 1abc d2b8 e23b
00000270: 6d29 013b 46b8 81bc d32e 50bc dc7d cc3c
00000280: 0109 94bc 9d39 a03d a284 913c 5e06 d6bc
00000290: aa5d 19bb 6ecd d13d 152d ab3d f638 7a3d
000002a0: 59e2 3fbc 0264 abbc c323 963c a44e 8ebc
000002b0: a7f6 fabd 9ac4 b3bd 704b 0ebd 5bea 97bb
000002c0: fd83 3e3d eff3 ecbc 4c62 ecbc 53be af3c
000002d0: 7738 77bd 53bd 8ebb b183 9d3b 95c4 023d
000002e0: 585c 67bd 8282 1f3c 64cc 2dbd 34dc 133d
000002f0: 264f bebc aacd e6bd b845 58bd 2992 d3bc
00000300: c30a bdbd 8786 e73b 0436 51bd a229 28be
00000310: 7e55 46bd 3a2b 13be 4106 6e3d 0c11 44bd
00000320: f8f1 7a3d 7c55 5f3d 75ad 783c f608 993d
00000330: a941 4fbd 582a dfbd ecde a93c 1f3d b63d
00000340: 5a07 233d 55db f5bb 5591 233d 09d9 39bd
00000350: 826e 65bd a1e2 b8bc 5c1c 2abc b317 06bd
00000360: 62ea bf3c 5934 713b b14f cc3d fc5a a3bd
00000370: e710 2cbd ee79 44bd 2916 81bc 728e 0b3e
00000380: e2bf 793d 4ca0 813c 0e15 053e f20e 763d
00000390: 82a7 493d d1f5 d13d 3c77 7b3d 30ca f23d
000003a0: 27df 12bd 0bf7 51bd 367c 7f3d 9055 e53c
000003b0: aa0b b1bd 8c29 16bd 16ad 0abe c8b2 e23d
000003c0: 2d9c d1bd 2a2a f3bc b81d 313d db69 17bc
000003d0: 569f 7a3d 5706 413c 55ea 173e f816 153e
000003e0: f2b7 e13d 98f0 8a3d bcda 94bc 8142 023e
000003f0: c74b 5ebd 416f d6bd 49c8 283d 2ee3 883d

bias f4 [120]
0.13165781 0.08578213 0.023015708 0.0259559 0.05787455 -0.016577872 0.1103297 -0.062347963
0.10269899 0.03058908 0.05534885 -0.022280807 0.011406989 0.11916951 -0.015599275 -0.04219057
0.15120521 0.06395584 0.0672599 0.114708625 0.14165819 -0.18281117 -0.10620917 -0.0760354
0.10067745 0.031424496 -0.030769398 -0.055738408 0.04995421 -0.05552621 -0.029155198 0.011921748
0.0022155105 -0.049094662 0.082206376 0.061920643 -0.019326366 -0.0641492 -0.010916839 0.010613526
0.026175989 -0.03376997 0.10191046 -0.0155204255 0.10216853 0.005279597 0.07576585 -0.07135709
0.10792945 0.0759025 0.13845316 -0.06358641 -0.0076563717 0.05970499 -0.052062213 0.09626144
0.055764563 0.10678001 0.015248112 0.008173323 0.06742086 -0.0129670715 0.08326948 0.14653851
0.08224971 0.03127965 -0.06730755 0.013473047 -0.0096545415 0.09402062 0.112626486 0.032645386
-0.04751835 -0.0050114663 0.043302093 0.00078111945 -0.04246047 -0.037911188 -0.0111733135 0.10218105
-0.047928635 -0.049448907 0.08129267 0.03926939 0.084898375 -0.0003659243 0.077347115 0.069583625
-0.013224666 0.0709468 -0.041478194 0.009150737 0.10950971 0.077126145 0.08045343 -0.062723994
-0.113221325 -0.015362683 0.0677997 -0.09461193 -0.024478603 0.04522015 0.06844488 0.06820117
-0.08143048 -0.123461194 -0.02434599 0.11087052 0.0689833 0.052558705 0.09563131 0.04474122
0.1241753 0.07635367 -0.015125762 -0.021454187 0.10589963 0.03985383 0.048737317 0.048234224
00000000: 4ed1 063e 8bae af3d 708b bc3c 78a1 d43c
00000010: dd0d 6d3d 51ce 87bc 8af4 e13d 9460 7fbd
00000020: d953 d23d f395 fa3c 7ab5 623d 3d86 b6bc
00000030: 61e4 3a3c 250f f43d 1a94 7fbc 05d0 2cbd
00000040: 8ad5 1a3e 48fb 823d 8fbf 893d 5bec ea3d
00000050: d80e 113e da32 3bbe 3184 d9bd 73b8 9bbd
00000060: fb2f ce3d f9b6 003d 1b10 fcbc f54d 64bd
00000070: c99c 4c3d 746f 63bd e2d6 eebc 6f53 433c
00000080: 1932 113b 7c17 49bd d15b a83d 80a0 7d3d
00000090: 5452 9ebc a860 83bd 8bdc 32bc 5be4 2d3c
000000a0: 076f d63c 6152 0abd 6eb6 d03d 6249 7ebc
000000b0: bc3d d13d 7800 ad3b 202b 9b3d aa23 92bd
000000c0: 1e0a dd3d c572 9b3d aac6 0d3e 9739 82bd
000000d0: 4de2 fabb 388d 743d 303f 55bd b824 c53d
000000e0: 6269 643d 7aaf da3d 38d3 793c 67e9 053c
000000f0: f313 8a3d d773 54bc 3089 aa3d 310e 163e
00000100: 8972 a83d 171f 003d 8ad8 89bd 0ebe 5c3c
00000110: 152e 1ebc e28d c03d b7a8 e63d 2bb7 053d
00000120: 9aa2 42bd 3a37 a4bb 895d 313d 0ac4 4c3a
00000130: 08eb 2dbd c348 1bbd 4610 37bc 4c44 d13d
00000140: d150 44bd f08a 4abd c57c a63d f1d8 203d
00000150: 33df ad3d 87d9 bfb9 2a68 9e3d dc81 8e3d
00000160: 45ac 58bc 8e4c 913d 0ae5 29bd f9ec 153c
00000170: a046 e03d 50f4 9d3d c5c4 a43d 7075 80bd
00000180: 95e0 e7bd c3b3 7bbc 92da 8a3d e6c3 c1bd
00000190: 5a87 c8bc c438 393d d42c 8c3d 0ead 8b3d
000001a0: 06c5 a6bd 39d9 fcbd 3e71 c7bc 1510 e33d
000001b0: 1e47 8d3d cc47 573d 59da c33d 9242 373d
000001c0: 9f4f fe3d 505f 9c3d 0bd2 77bc b1c0 afbc
000001d0: e8e1 d83d c53d 233d c8a0 473d 4091 453d

weight f4 [84, 120]
-0.015255655 0.10545999 0.19341557 -0.054175798 0.04538947 -0.030043257 0.048880648 -0.13812128
0.38604757 0.077279545 -0.03949489 0.09255281 0.064929195 -0.053549495 0.031671125 -0.032785784
-0.0013723602 0.14111716 0.03635465 0.059180763 -0.16277002 -0.1050854 -0.044875663 0.060713246
0.017512318 0.16058122 0.04716022 0.014683406 -0.07326788 0.12346635 0.14306793 0.20997328
-0.05686694 -0.06442757 0.011866728 0.020501137 0.05048077 -8.811231e-05 0.0149909 0.07224956
0.01790181 -0.039746273 0.13685006 -0.011364619 -0.044974256 -0.121685445 -0.045709237 -0.06379761
-0.0082084825 -0.013402639 0.15499398 0.07369182 -0.010119957 0.012959101 0.0008459934 0.12217568
0.0951592 0.09545351 0.059036892 0.016123965 -0.004581145 0.074457675 0.19846381 0.025656141
0.05087511 -0.02907806 0.037757527 0.07659886 -0.029594064 0.25348732 -0.0342616 0.1140085
-0.0003139646 0.12758532 0.11581198 -0.0010366548 0.0110864565 0.13679981 0.054484602 -0.024132479
-0.011578907 0.049181804 0.0722297 0.06479927 0.15375876 -0.01179492 -0.16759154 -0.091144785
-0.08564127 0.05936952 -0.059273258 -0.087022096 0.022720346 0.08803742 0.102524504 0.07023212
-0.081096165 0.20108485 0.085263364 -0.16171172 -0.04563885 -0.11152498 -0.069696 -0.06261108
-0.0153989345 -0.20394962 0.064918496 0.09108352 0.19058219 -0.102069385 -0.018060995 0.00070548075
0.029662706 0.035453163 0.06171693 -0.061710693 -0.028640067 0.055561267 -0.08482267 0.054145437
-0.07987494 0.05445665 -0.05659294 0.067906074 -0.08087905 0.027833972 -0.03860423 0.096279345
-0.026134206 -0.014103149 -0.012330698 -0.06339207 -0.035401464 0.1271712 0.116053134 0.119869545
-0.06716771 -0.028288223 -0.11858303 0.018119952 0.051076915 -0.03703312 0.15706201 0.023430558
0.06286763 0.070102505 -0.03172289 -0.07604527 0.02914347 0.080156334 0.06131627 -0.024096442
-0.016693214 -0.06187075 0.113148995 -0.023132937 0.071410075 0.0058067227 0.09622767 -0.0807845
0.035615604 -0.16600078 -0.025619166 -0.109202966 0.13240233 -0.12211353 -0.0039198035 -0.036509477
0.051443174 0.11220088 0.09200991 0.05537172 0.04446129 -0.013577049 -0.06138356 0.044620283
0.058141988 -0.039297156 0.06359295 -0.0073634954 -0.051439654 0.07673748 -0.009248644 0.06967188
-0.030612882 0.1094015 -0.034590848 0.055152208 0.1828808 0.04782112 -0.06198722 -0.102681
0.032184757 0.12021811 -0.011738994 0.070035875 0.06686753 0.08249425 0.017514486 0.22778781
0.171021 0.06439609 0.093853675 0.0009997748 -0.093201995 0.03558344 -0.010847993 -0.0022635048
0.06780282 0.18694146 -0.006138098 -0.047992926 -0.007943433 -0.01791647 0.087996304 0.061218243
0.011228054 -0.13706325 -0.0039594993 0.17403287 0.21335466 -0.025727171 0.0033483773 -0.008370717
-0.05968007 0.002497092 -0.06558416 -0.050695043 0.03672545 -0.04304402 -0.030240646 -0.02264038
-0.12284815 0.08809131 0.04175429 0.14222166 0.1253911 0.03434514 -0.051984858 0.110071965
0.034801856 -0.012556359 -0.028646924 0.07485248 -0.09823741 -0.17411493 -0.08350512 0.031968653
-0.03593416 -0.15965419 -0.045601532 0.01754561 -0.0026570025 -0.035173174 -0.010416462 0.07246644
00000000: dbf2 79bc 68fb d73d bb0e 463e 71e7 5dbd
00000010: 4fea 393d 471d f6bc 1337 483d aa6f 0dbe
00000020: 07a8 c53e bd44 9e3d 65c5 21bd 548c bd3d
00000030: 99f9 843d b756 5bbd 95b9 013d 634a 06bd
00000040: c4e0 b3ba 0481 103e 9de8 143d 8767 723d
00000050: 2fad 26be 0437 d7bd 8bcf 37bd 74ae 783d
00000060: fe75 8f3c 676f 243e 132b 413d ab92 703c
00000070: 780d 96bd eddb fc3d 6680 123e 3c03 573e
00000080: 4fed 68bd 9af2 83bd aa6c 423c 00f2 a73c
00000090: edc4 4e3d f0c8 b8b8 649c 753c 94f7 933d
000000a0: d1a6 923c fdcc 22bd 6c22 0c3e ab32 3abc
000000b0: ed36 38bd 3836 f9bd 9c39 3bbd 52a8 82bd
000000c0: df7c 06bc be96 5bbc beb6 1e3e bdeb 963d
000000d0: 2dce 25bc 6952 543c a8c5 5d3a 3e37 fa3d
000000e0: d4e2 c23d 217d c33d abd0 713d 6816 843c
000000f0: 6e1d 96bb 447d 983d 193a 4b3e d42c d23c
00000100: 6b62 503d 1d35 eebc a3a7 1a3d dddf 9c3d
00000110: 406f f2bc 17c9 813e e455 0cbd 4a7d e93d
00000120: 9e9b a4b9 baa5 023e d52e ed3d 5de0 87ba
00000130: f8a3 353c 4015 0c3e 3f2b 5f3d 7ab1 c5bc
00000140: 75b5 3dbc dc72 493d 2aed 933d 7bb5 843d
00000150: f072 1d3e 7b3f 41bc 1e9d 2bbe 1eaa babd
00000160: b164 afbd 742d 733d 84c8 72bd a438 b2bd
00000170: 0520 ba3c f64c b43d 5ef8 d13d dcd5 8f3d
00000180: bf15 a6bd 30e9 4d3e 8f9e ae3d c297 25be
00000190: ceef 3abd 3567 e4bd c7bc 8ebd 3d3a 80bd
000001a0: d04b 7cbc 2bd8 50be fdf3 843d ff89 ba3d
000001b0: fa27 433e c109 d1bd a7f4 93bc 03f0 383a
000001c0: 34ff f23c 5637 113d e4ca 7c3d 5ac4 7cbd
000001d0: 939e eabc 3694 633d 82b7 adbd 9bc7 5d3d
000001e0: 7995 a3bd f00d 5f3d 00ce 67bd 5712 8b3d
000001f0: eaa3 a5bd 1204 e43c 781f 1ebd 1b2e c53d
00000200: 6717 d6bc e510 67bc b206 4abc b4d3 81bd
00000210: 2001 11bd 2b39 023e 44ad ed3d 2a7e f53d
00000220: 398f 89bd b4bc e7bc a9db f2bd 4b70 943c
00000230: 0736 513d 0ab0 17bd ddd4 203e 71f1 bf3c
00000240: bec0 803d e791 8f3d dcef 01bd 9fbd 9bbd
00000250: 49be ee3c 0129 a43d c526 7b3d e765 c5bc
00000260: 35c0 88bc 2f6c 7dbd a9ba e73d 4981 bdbc
00000270: 723f 923d 5246 be3b 0313 c53d 5872 a5bd
00000280: abe1 113d 1cfc 29be 49df d1bc cea5 dfbd
00000290: 7a94 073e a916 fabd b271 80bb f68a 15bd
000002a0: 14b6 523d 93c9 e53d b16f bc3d 75cd 623d
000002b0: 0b1d 363d 4572 5ebc 546d 7bbd c2c3 363d
000002c0: 4b26 6e3d 0ef6 20bd 053d 823d 7a49 f1bb
000002d0: 63b2 52bd 8a28 9d3d a087 17bc 21b0 8e3d
000002e0: dec7 fabc e50d e03d 22af 0dbd 48e7 613d
000002f0: 1b45 3b3e 14e0 433d 50e6 7dbd 6b4a d2bd
00000300: 2ad4 033d ea34 f63d e954 40bc f86e 8f3d
00000310: d8f1 883d bff2 a83d 8a7a 8f3c 3541 693e
00000320: 2120 2f3e 19e2 833d 5b36 c03d e00a 833a
00000330: b0e0 bebd f1bf 113d c8bb 31bc 4f57 14bb
00000340: 34dc 8a3d 956d 3f3e 1922 c9bb 3b94 44bd
00000350: 2c25 02bc 90c5 92bc 6837 b43d fbbf 7a3d
00000360: dff5 373c 4f5a 0cbe b0be 81bb ac35 323e
00000370: a579 5a3e cac1 d2bc 7370 5b3b 5525 09bc
00000380: 1773 74bd 40a6 233b fd50 86bd 9ba5 4fbd
00000390: 6d6d 163d ed4e 30bd 3bbb f7bc 5178 b9bc
000003a0: d097 fbbd 3769 b43d 8c06 2b3d 8ea2 113e
000003b0: 8666 003e 7dad 0c3d 13ee 54bd 696d e13d
000003c0: 648c 0e3d 30b9 4dbc f4ac eabc 424c 993d
000003d0: b230 c9bd 2f4b 32be bb04 abbd 90f1 023d
000003e0: b32f 13bd 637c 23be acc8 3abd d0bb 8f3c
000003f0: 1b21 2ebb bf11 10bd cfa9 2abc 4969 943d

bias f4 [84]
0.12785023 -0.049216267 0.070215166 0.025969429 0.057811327 0.10844804 0.12849861 0.16387281
-0.14826646 -0.02831477 0.029239714 -0.08435753 -0.010504563 0.047994874 0.0073833913 -0.13035437
-0.08322129 0.04043223 -0.03994996 -0.009432428 0.00856529 -0.0037993717 0.14646201 0.06116063
0.10942084 0.021191211 0.1000056 -0.038501676 0.080043055 -0.14459613 -0.08218626 -0.07663927
0.033043165 0.1847428 -0.01323413 0.0867538 -0.0249582 -0.008882219 0.059959713 0.068105824
0.067244455 0.023394935 0.08222436 -0.08751234 0.11528142 0.03316788 -0.19240478 0.1948424
-0.095595285 -0.042497706 0.08547692 -0.026419898 -0.021937948 0.13398933 0.094486184 -0.0168713
-0.09314512 0.1070476 -0.025925742 -0.023895623 0.20053351 -0.06513334 0.07221016 0.12810875
0.15657777 0.029863682 -0.026413688 0.006399389 0.08506104 0.02175747 0.070329785 0.103020996
-0.058359038 0.09206631 0.012064365 0.098715104 -0.090122096 0.15564853 0.010488395 0.053525146
0.17608634 0.02075085 -0.11458108 0.008364704
00000000: 2ceb 023e ff96 49bd f8cc 8f3d d7bd d43c
00000010: 92cb 6c3d 021a de3d 2495 033e 46ce 273e
00000020: 2ad3 17be 60f4 e7bc 2088 ef3c a4c3 acbd
00000030: 551b 2cbc 4696 443d 60f0 f13b 9e7b 05be
00000040: ec6f aabd 449c 253d 92a2 23bd 788a 1abc
00000050: 6e55 0c3c e1fe 78bb 23fa 153e 9283 7a3d
00000060: 0918 e03d 3199 ad3c bccf cc3d efb3 1dbd
00000070: 9ded a33d 0211 14be 4551 a8bd 0df5 9cbd
00000080: 4558 073d 372d 3d3e f7d3 58bc faab b13d
00000090: 2475 ccbc ba86 11bc 5198 753d 117b 8b3d
000000a0: 76b7 893d bca6 bf3c 3f65 a83d ab39 b3bd
000000b0: aa18 ec3d 0bdb 073d c205 45be c484 473e
000000c0: 76c7 c3bd 1312 2ebd 860e af3d 8b6e d8bc
000000d0: 36b7 b3bc 8034 093e f981 c13d ae35 8abc
000000e0: dec2 bebd c63b db3d 3962 d4bc c1c0 c3bc
000000f0: a858 4d3e a164 85bd ece2 933d f12e 033e
00000100: ec55 203e aea4 f43c 8561 d8bc f7b1 d13b
00000110: 7c34 ae3d b93c b23c 1009 903d acfc d23d
00000120: e309 6fbd 438d bc3d 9da9 453c 252b ca3d
00000130: ef91 b8bd 5462 1f3e 84d7 2b3c 2f3d 5b3d
00000140: fa4f 343e b0fd a93c 7ca9 eabd 1d0c 093c

weight f4 [10, 84]
0.10658481 -0.02390801 -0.07298598 0.062756345 0.11374682 -0.17999378 0.008308778 -0.3232658
-0.053358603 -0.35288957 -0.028888537 -0.07308642 -0.23108333 0.13928793 0.02526889 -0.15013847
-0.18359266 -0.008807716 0.021752559 0.033938743 0.0770546 0.04871126 -0.26532492 -0.18885346
-0.17281653 0.13135181 -0.27259368 0.01321781 0.05500566 -0.2092883 0.059177965 -0.14177018
-0.12662742 0.049700003 -0.006133873 0.061817005 0.049024127 0.04292511 -0.21523643 0.06381899
-0.12624699 0.0033126234 -0.25225306 -0.09734031 -0.18433401 -0.111879475 -0.1027625 -0.20796046
-0.076056674 -0.05395299 -0.053205404 0.23351644 0.033870336 -0.17216548 -0.037370156 0.08141797
0.06303692 0.15121558 -0.18613061 0.04278217 -0.07660818 -0.08500139 0.1552953 -0.0620078
0.10897647 -0.029160822 -0.025162209 -0.026947152 -0.16866964 0.110990226 -0.08248609 -0.031250335
0.07873555 0.16762139 0.13671264 0.06469737 0.08948059 -0.14084701 0.12689483 0.15466769
0.098025694 -0.16043372 0.024061576 -0.15123154 -0.21415374 0.120203495 0.16761701 0.0832416
0.10507288 -0.32700673 -0.21191308 -0.056565404 0.06385777 0.092484176 0.18335904 -0.016974814
-0.10503569 -0.10041084 -0.18854257 0.14214104 0.034383353 -0.045897037 -0.03115643 -0.18875748
0.15477166 -0.0002904199 0.054316845 -0.049122807 0.16450444 0.005086414 0.10874237 0.19309022
-0.08836353 -0.0055519883 -0.16041276 0.08570109 -0.09305973 -0.0022411481 -0.042408954 -0.21527876
0.042559657 -0.1942257 -0.07457181 -0.21474312 -0.058181494 -0.18918961 0.06257148 0.028631223
0.042961337 0.2384114 0.070575304 -0.1605263 -0.11702548 -0.0016761877 -0.05216862 -0.009025301
0.0055309567 0.15268768 0.17756988 -0.10385619 -0.06515777 -0.111495174 0.115174666 -0.09743119
0.024382938 0.09451787 -0.100368336 0.020074308 -0.08367696 -0.29784468 0.03425251 -0.06626929
-0.25672913 0.13989218 0.15408154 -0.053576443 0.18138716 -0.01740402 -0.16954336 -0.24069911
-0.08513954 0.08967131 0.130725 0.10069121 -0.15830304 0.09564847 -0.08719329 -0.06627021
-0.08856114 -0.015788537 -0.21335411 -0.2604323 0.14506531 0.12627466 0.044086136 -0.08394816
0.08691117 0.1372264 0.15573217 -0.08322957 -0.28129077 0.15031683 -0.1065271 -0.09496296
-0.046767924 0.046034995 -0.020874653 0.12036773 0.024146304 0.09724744 0.14455687 -0.046505615
-0.19404328 0.1092578 -0.17020875 0.14972053 0.18868151 0.07498272 0.058553714 0.1385914
-0.15739474 0.031114582 0.12931024 0.072665595 0.055142872 0.17032623 0.0219795 -0.15501669
-0.17707959 0.001776654 0.007217512 -0.06771629 0.075568065 -0.11356723 0.0026807436 0.04175562
-0.10103385 0.07076656 -0.15376914 -0.020531565 -0.08059642 -0.11994114 -0.18799944 -0.006122506
-0.06420795 -0.29587993 -0.26823387 -0.16938686 0.07015302 -0.012025396 0.059068322 -0.15029456
-0.087692864 -0.018729685 0.08470684 0.11732889 0.15908347 0.08561751 -0.24066293 0.058014657
-0.216189 -0.03616235 0.12551627 0.08717998 -0.03583758 -0.0099200895 -0.10590963 -0.007665852
-0.16475819 -0.045879897 -0.10271419 0.1217983 0.1343276 0.07524076 0.04247777 -0.14145757
00000000: 2349 da3d bbda c3bc ac79 95bd 6686 803d
00000010: 18f4 e83d 4a50 38be 8a21 083c 1883 a5be
00000020: 8d8e 5abd f1ad b4be a7a7 ecbc 55ae 95bd
00000030: 1ca1 6cbe 7fa1 0e3e b400 cf3c e6bd 19be
00000040: b7ff 3bbe 3d4e 10bc 6c32 b23c 5a03 0b3d
00000050: cdce 9d3d 7585 473d abd8 87be cd62 41be
00000060: d1f6 30be 1781 063e 6691 8bbe 838f 583c
00000070: 9d4d 613d ac4f 56be 9864 723d 342c 11be
00000080: 9eaa 01be 3b92 4b3d a8fe c8bb d433 7d3d
00000090: 86cd 483d 3dd2 2f3d f066 5cbe 88b3 823d
000000a0: e446 01be 9918 593b 5027 81be 5b5a c7bd
000000b0: 0ec2 3cbe 1121 e5bd 2575 d2bd 96f3 54be
000000c0: 9ac3 9bbd cffd 5cbd e9ed 59bd ef1e 6f3e
000000d0: 9fbb 0a3d 264c 30be 7311 19bd 77be a63d
000000e0: 8019 813d 42d8 1a3e 0699 3ebe 5b3c 2f3d
000000f0: c0e4 9cbd 3515 aebd bb05 1f3e e4fb 7dbd
00000100: 0e2f df3d ade2 eebc fa20 cebc 46c0 dcbc
00000110: bcb7 2cbe d84e e33d 78ee a8bd 5a00 00bd
00000120: 1b40 a13d f1a4 2b3e 66fe 0b3e 0e80 843d
00000130: 9941 b73d 333a 10be b8f0 013e 3561 1e3e
00000140: b2c1 c83d bd48 24be c81c c53c 71dc 1abe
00000150: 1e4b 5bbe 402d f63d cba3 2b3e 927a aa3d
00000160: 7330 d73d 6d6d a7be beff 58be 20b1 67bd
00000170: ddc7 823d 5868 bd3d 79c2 3b3e c40e 8bbc
00000180: f41c d7bd 33a4 cdbd 4e11 41be 6c8d 113e
00000190: 8fd5 0c3d 88fe 3bbd c53b ffbc a449 41be
000001a0: 767c 1e3e 8043 98b9 577b 5e3d ff34 49bd
000001b0: da73 283e efab a63b 52b4 de3d 71b9 453e
000001c0: f0f7 b4bd 74ed b5bb 3e43 24be 0e84 af3d
000001d0: 1a96 bebd 3ae0 12bb 03b5 2dbd 0972 5cbe
000001e0: 0953 2e3d 1ae3 46be 1bb9 98bd 9fe5 5bbe
000001f0: b84f 6ebd ecba 41be 7a25 803d 078c ea3c
00000200: 3af8 2f3d 1e22 743e c989 903d 0261 24be
00000210: 0eab efbd 87b3 dbba c3ae 55bd dbde 13bc
00000220: 073d b53b 295a 1c3e e1d4 353e 8eb2 d4bd
00000230: 7071 85bd 9557 e4bd b2e0 eb3d 018a c7bd
00000240: babe c73c 9692 c13d ea8d cdbd e072 a43c
00000250: d35e abbd 197f 98be 5c4c 0c3d 32b8 87bd
00000260: 0072 83be e53f 0f3e 8dc7 1d3e f972 5bbd
00000270: 8ebd 393e e092 8ebc c69c 2dbe d479 76be
00000280: a45d aebd 97a5 b73d c6dc 053e 3137 ce3d
00000290: 311a 22be 58e3 c33d 6592 b2bd adb8 87bd
000002a0: 8b5f b5bd f656 81bc 8079 5abe 6257 85be
000002b0: 008c 143e 254e 013e aa93 343d 03ed abbd
000002c0: 7cfe b13d 1485 0c3e 4178 1f3e 4474 aabd
000002d0: 5805 90be a8ec 193e e12a dabd f17b c2bd
000002e0: b98f 3fbd 318f 3c3d 5201 abbc 5b83 f63d
000002f0: 78ce c53c aa29 c73d b706 143e ac7c 3ebd
00000300: 48b3 46be 8ec2 df3d 344b 2ebe 5750 193e
00000310: ba35 413e 8a90 993d 05d6 6f3d e7ea 0d3e
00000320: 162c 21be 02e4 fe3c e769 043e b3d1 943d
00000330: 7edd 613d 006a 2e3e 5a0e b43c b2bc 1ebe
00000340: 5a54 35be 9ede e83a e180 ec3b d7ae 8abd
00000350: 6ec3 9a3d f095 e8bd 6aaf 2f3b f107 2b3d
00000360: d6ea cebd 0fee 903d a875 1dbe d031 a8bc
00000370: bc0f a5bd b3a3 f5bd ed82 40be 4e9f c8bb
00000380: 757f 83bd 937d 97be f355 89be c073 2dbe
00000390: 63ac 8f3d 2b06 45bc a0f1 713d d1e6 19be
000003a0: 5198 b3bd ff6e 99bc c87a ad3d 214a f03d
000003b0: c7e6 223e 3c58 af3d 5870 76be c7a0 6d3d
000003c0: a660 5dbe f91e 14bd 5687 003e 6b8b b23d
000003d0: 6dca 12bd df87 22bc 26e7 d8bd d431 fbbb
000003e0: 5fb6 28be 8fec 3bbd d15b d2bd 6371 f93d
000003f0: 2d8d 093e d417 9a3d 2cfd 2d3d 41da 10be

bias f4 [10]
-0.070978336 -0.0054173064 -0.00337873 -0.023224931 -0.058558524 0.11934595 0.043138083 -0.028608736
0.016043017 0.049455393
00000000: 175d 91bd a983 b1bb af6d 5dbb 3642 bebc
00000010: 10db 6fbd a66b f43d 8fb1 303d de5c eabc
00000020: a56c 833c bd91 4a3d
